Neural Network Tools for STM32AI v1.6.0 (STM.ai v7.1.0-RC3)
Created date          : 2022-03-17 15:48:22
Parameters            : generate --name network -m C:/Users/steinmann/Documents/GitHub/AI_PulseReconstruction/colab_output/pulse_reco.tflite --type tflite --compression 1 --verbosity 1 --workspace C:\Users\STEINM~1\AppData\Local\Temp\mxAI_workspace25031381374226005433481288026611726 --output C:\Users\steinmann\.stm32cubemx\network_output

Exec/report summary (generate)
------------------------------------------------------------------------------------------------------------------------
model file            : C:\Users\steinmann\Documents\GitHub\AI_PulseReconstruction\colab_output\pulse_reco.tflite
type                  : tflite
c_name                : network
compression           : None
workspace dir         : C:\Users\STEINM~1\AppData\Local\Temp\mxAI_workspace25031381374226005433481288026611726
output dir            : C:\Users\steinmann\.stm32cubemx\network_output
model_name            : pulse_reco
model_hash            : 196bcfbd200ef6b66eb780304404035a
input 1/1             : 'serving_default_waveform_input0'
                        128 items, 512 B, ai_float, float, (1,1,1,128), domain:user/
output 1/1            : 'dense_8'
                        3 items, 12 B, ai_float, float, (1,1,1,3), domain:user/
params #              : 10,195 items (12.82 KiB)
macc                  : 10,291
weights (ro)          : 40,780 B (39.82 KiB) / +27,648(+210.5%) vs original model (1 segment)
activations (rw)      : 256 B (256 B) (1 segment)
ram (total)           : 780 B (780 B) = 256 + 512 + 12

Model name - pulse_reco ['serving_default_waveform_input0'] ['dense_8']
-------------------------------------------------------------------------------------------------------------------------------------------------------------------
id   layer (type)                              oshape        param/size    macc    connected to                      |   c_size             c_macc   c_type       
-------------------------------------------------------------------------------------------------------------------------------------------------------------------
0    serving_default_waveform_input0 (Input)   (1,1,1,128)                                                           |                              
     dense_0 (Dense)                           (1,1,1,32)    4,128/4,224   4,128   serving_default_waveform_input0   |   +12,288(+290.9%)            dense()[0]   
-------------------------------------------------------------------------------------------------------------------------------------------------------------------
1    dense_1 (Dense)                           (1,1,1,32)    1,024/1,024   1,024   dense_0                           |   +3,072(+300.0%)             dense()[1]   
-------------------------------------------------------------------------------------------------------------------------------------------------------------------
2    dense_2 (Dense)                           (1,1,1,32)    1,056/1,152   1,056   dense_1                           |   +3,072(+266.7%)             dense()[2]   
-------------------------------------------------------------------------------------------------------------------------------------------------------------------
3    dense_3 (Dense)                           (1,1,1,32)    1,024/1,024   1,024   dense_2                           |   +3,072(+300.0%)             dense()[3]   
-------------------------------------------------------------------------------------------------------------------------------------------------------------------
4    dense_4 (Dense)                           (1,1,1,32)    1,056/1,152   1,056   dense_3                           |   +3,072(+266.7%)             dense()[4]   
     nl_4_nl (Nonlinearity)                    (1,1,1,32)                  32      dense_4                           |                               nl()[5]      
-------------------------------------------------------------------------------------------------------------------------------------------------------------------
5    dense_5 (Dense)                           (1,1,1,32)    1,056/1,152   1,056   nl_4_nl                           |   +3,072(+266.7%)             dense()[6]   
     nl_5_nl (Nonlinearity)                    (1,1,1,32)                  32      dense_5                           |                               nl()[7]      
-------------------------------------------------------------------------------------------------------------------------------------------------------------------
6    dense_6 (Dense)                           (1,1,1,16)    528/2,112     528     nl_5_nl                           |                               dense()[8]   
     nl_6_nl (Nonlinearity)                    (1,1,1,16)                  16      dense_6                           |                               nl()[9]      
-------------------------------------------------------------------------------------------------------------------------------------------------------------------
7    dense_7 (Dense)                           (1,1,1,16)    272/1,088     272     nl_6_nl                           |                               dense()[10]  
     nl_7_nl (Nonlinearity)                    (1,1,1,16)                  16      dense_7                           |                               nl()[11]     
-------------------------------------------------------------------------------------------------------------------------------------------------------------------
8    dense_8 (Dense)                           (1,1,1,3)     51/204        51      nl_7_nl                           |                               dense()/o[12]
-------------------------------------------------------------------------------------------------------------------------------------------------------------------
model/c-model: macc=10,291/10,291  weights=13,132/40,780 +27,648(+210.5%) activations=--/256 io=--/524



Generated C-graph summary
------------------------------------------------------------------------------------------------------------------------
model name            : pulse_reco
c-name                : network
c-node #              : 13
c-array #             : 30
activations size      : 256 (1 segments)
weights size          : 40780 (1 segments)
macc                  : 10291
inputs                : ['serving_default_waveform_input0_output']
outputs               : ['dense_8_output']

C-Arrays (30)
---------------------------------------------------------------------------------------------------------------------
c_id   name (*_array)                           item/size    domain/mem-pool           c-type        fmt     comment
---------------------------------------------------------------------------------------------------------------------
0      serving_default_waveform_input0_output   128/512      user/                     float         float   /input 
1      dense_0_output                           32/128       activations/**default**   float         float          
2      dense_1_output                           32/128       activations/**default**   float         float          
3      dense_2_output                           32/128       activations/**default**   float         float          
4      dense_3_output                           32/128       activations/**default**   float         float          
5      dense_4_output                           32/128       activations/**default**   float         float          
6      nl_4_nl_output                           32/128       activations/**default**   float         float          
7      dense_5_output                           32/128       activations/**default**   float         float          
8      nl_5_nl_output                           32/128       activations/**default**   float         float          
9      dense_6_output                           16/64        activations/**default**   float         float          
10     nl_6_nl_output                           16/64        activations/**default**   float         float          
11     dense_7_output                           16/64        activations/**default**   float         float          
12     nl_7_nl_output                           16/64        activations/**default**   float         float          
13     dense_8_output                           3/12         user/                     float         float   /output
14     dense_0_weights                          4096/16384   weights/                  const float   float          
15     dense_0_bias                             32/128       weights/                  const float   float          
16     dense_1_weights                          1024/4096    weights/                  const float   float          
17     dense_2_weights                          1024/4096    weights/                  const float   float          
18     dense_2_bias                             32/128       weights/                  const float   float          
19     dense_3_weights                          1024/4096    weights/                  const float   float          
20     dense_4_weights                          1024/4096    weights/                  const float   float          
21     dense_4_bias                             32/128       weights/                  const float   float          
22     dense_5_weights                          1024/4096    weights/                  const float   float          
23     dense_5_bias                             32/128       weights/                  const float   float          
24     dense_6_weights                          512/2048     weights/                  const float   float          
25     dense_6_bias                             16/64        weights/                  const float   float          
26     dense_7_weights                          256/1024     weights/                  const float   float          
27     dense_7_bias                             16/64        weights/                  const float   float          
28     dense_8_weights                          48/192       weights/                  const float   float          
29     dense_8_bias                             3/12         weights/                  const float   float          
---------------------------------------------------------------------------------------------------------------------

C-Layers (13)
-----------------------------------------------------------------------------------------------------------------------
c_id   name (*_layer)   id   layer_type   macc   rom     tensors                                     shape (array id) 
-----------------------------------------------------------------------------------------------------------------------
0      dense_0          0    dense        4128   16512   I: serving_default_waveform_input0_output   (1,1,1,128) (0)  
                                                         W: dense_0_weights                          (128,1,1,32) (14)
                                                         W: dense_0_bias                             (1,1,1,32) (15)  
                                                         O: dense_0_output                           (1,1,1,32) (1)   
-----------------------------------------------------------------------------------------------------------------------
1      dense_1          1    dense        1024   4096    I: dense_0_output                           (1,1,1,32) (1)   
                                                         W: dense_1_weights                          (32,1,1,32) (16) 
                                                         O: dense_1_output                           (1,1,1,32) (2)   
-----------------------------------------------------------------------------------------------------------------------
2      dense_2          2    dense        1056   4224    I: dense_1_output                           (1,1,1,32) (2)   
                                                         W: dense_2_weights                          (32,1,1,32) (17) 
                                                         W: dense_2_bias                             (1,1,1,32) (18)  
                                                         O: dense_2_output                           (1,1,1,32) (3)   
-----------------------------------------------------------------------------------------------------------------------
3      dense_3          3    dense        1024   4096    I: dense_2_output                           (1,1,1,32) (3)   
                                                         W: dense_3_weights                          (32,1,1,32) (19) 
                                                         O: dense_3_output                           (1,1,1,32) (4)   
-----------------------------------------------------------------------------------------------------------------------
4      dense_4          4    dense        1056   4224    I: dense_3_output                           (1,1,1,32) (4)   
                                                         W: dense_4_weights                          (32,1,1,32) (20) 
                                                         W: dense_4_bias                             (1,1,1,32) (21)  
                                                         O: dense_4_output                           (1,1,1,32) (5)   
-----------------------------------------------------------------------------------------------------------------------
5      nl_4_nl          4    nl           32     0       I: dense_4_output                           (1,1,1,32) (5)   
                                                         O: nl_4_nl_output                           (1,1,1,32) (6)   
-----------------------------------------------------------------------------------------------------------------------
6      dense_5          5    dense        1056   4224    I: nl_4_nl_output                           (1,1,1,32) (6)   
                                                         W: dense_5_weights                          (32,1,1,32) (22) 
                                                         W: dense_5_bias                             (1,1,1,32) (23)  
                                                         O: dense_5_output                           (1,1,1,32) (7)   
-----------------------------------------------------------------------------------------------------------------------
7      nl_5_nl          5    nl           32     0       I: dense_5_output                           (1,1,1,32) (7)   
                                                         O: nl_5_nl_output                           (1,1,1,32) (8)   
-----------------------------------------------------------------------------------------------------------------------
8      dense_6          6    dense        528    2112    I: nl_5_nl_output                           (1,1,1,32) (8)   
                                                         W: dense_6_weights                          (32,1,1,16) (24) 
                                                         W: dense_6_bias                             (1,1,1,16) (25)  
                                                         O: dense_6_output                           (1,1,1,16) (9)   
-----------------------------------------------------------------------------------------------------------------------
9      nl_6_nl          6    nl           16     0       I: dense_6_output                           (1,1,1,16) (9)   
                                                         O: nl_6_nl_output                           (1,1,1,16) (10)  
-----------------------------------------------------------------------------------------------------------------------
10     dense_7          7    dense        272    1088    I: nl_6_nl_output                           (1,1,1,16) (10)  
                                                         W: dense_7_weights                          (16,1,1,16) (26) 
                                                         W: dense_7_bias                             (1,1,1,16) (27)  
                                                         O: dense_7_output                           (1,1,1,16) (11)  
-----------------------------------------------------------------------------------------------------------------------
11     nl_7_nl          7    nl           16     0       I: dense_7_output                           (1,1,1,16) (11)  
                                                         O: nl_7_nl_output                           (1,1,1,16) (12)  
-----------------------------------------------------------------------------------------------------------------------
12     dense_8          8    dense        51     204     I: nl_7_nl_output                           (1,1,1,16) (12)  
                                                         W: dense_8_weights                          (16,1,1,3) (28)  
                                                         W: dense_8_bias                             (1,1,1,3) (29)   
                                                         O: dense_8_output                           (1,1,1,3) (13)   
-----------------------------------------------------------------------------------------------------------------------



Complexity report per layer - macc=10,291 weights=40,780 act=256 ram_io=524
------------------------------------------------------------------------
id   name      c_macc                    c_rom                     c_id
------------------------------------------------------------------------
0    dense_0   ||||||||||||||||  40.1%   ||||||||||||||||  40.5%   [0] 
1    dense_1   ||||              10.0%   ||||              10.0%   [1] 
2    dense_2   ||||              10.3%   ||||              10.4%   [2] 
3    dense_3   ||||              10.0%   ||||              10.0%   [3] 
4    dense_4   ||||              10.3%   ||||              10.4%   [4] 
4    nl_4_nl   |                  0.3%   |                  0.0%   [5] 
5    dense_5   ||||              10.3%   ||||              10.4%   [6] 
5    nl_5_nl   |                  0.3%   |                  0.0%   [7] 
6    dense_6   ||                 5.1%   ||                 5.2%   [8] 
6    nl_6_nl   |                  0.2%   |                  0.0%   [9] 
7    dense_7   |                  2.6%   |                  2.7%   [10]
7    nl_7_nl   |                  0.2%   |                  0.0%   [11]
8    dense_8   |                  0.5%   |                  0.5%   [12]

Generated files (5)
-------------------------------------------------------------------------
C:\Users\steinmann\.stm32cubemx\network_output\network_config.h
C:\Users\steinmann\.stm32cubemx\network_output\network.h
C:\Users\steinmann\.stm32cubemx\network_output\network.c
C:\Users\steinmann\.stm32cubemx\network_output\network_data.h
C:\Users\steinmann\.stm32cubemx\network_output\network_data.c
